Assets/Models/Manipulator.onnx (onnx, 146085 bytes, 11 tensors)

network_body.observation_encoder.processors.0.normalizer.running_mean f4 [10]
0	0x41b7fb76	22.997784
1	0x423c4846	47.07058
2	0x428c5109	70.15827
3	0x409b328f	4.8499217
4	0x3defe2f6	0.11713211
5	0x3da618ad	0.08110175
6	0x3d24cf01	0.040236477
7	0xbd90def0	-0.07073772
8	0xbfbfd8b2	-1.4988005
9	0xbc6d20fc	-0.014473196

network_body._body_endoder.seq_layers.0.weight f4 [128, 10]
0	0xbe1e701e	-0.15472457
1	0x3ecf624a	0.40504676
2	0xbdd0f560	-0.102030516
3	0x3c1f35b2	0.009717392
4	0xbea0d5d7	-0.31413147
5	0x3e7f86d7	0.24953781
6	0x3f1e0c49	0.61737496
7	0x3e8dbda1	0.27683738
8	0x3e20f206	0.15717325
9	0xbee0fff6	-0.43945283
10	0xbd0298aa	-0.031883873
11	0x3f016703	0.5054781
12	0xbedf7c00	-0.43649292
13	0x3e1d4607	0.15358745
14	0x3e40494c	0.1877796
15	0x3e07dd41	0.13267995
16	0xbefe06f0	-0.49614668
17	0x3e58897a	0.21146193
18	0x3e2ca75a	0.16860715
19	0xbe2e8884	-0.17044264
20	0xbda3e0b0	-0.0800184
21	0x3e5c0ba4	0.21488816
22	0x3f174ca2	0.5910131
23	0xbe77c50e	-0.24196264
24	0x3e6a9a9a	0.22910538
25	0xbe7112bf	-0.23542307
26	0x3ef3effb	0.47644028
27	0xbeeadfec	-0.45873964
28	0xbe6e684b	-0.23281972
29	0x3e8c0ee1	0.27355102
30	0x3c9cf276	0.019158583
31	0xbc64281f	-0.013925581
32	0x3e357ee7	0.1772419
33	0xbed805db	-0.42191967
34	0x3f0dfecc	0.55466914
35	0xbe807e37	-0.25096294
36	0x3e9b6079	0.3034704
37	0xbe950abb	-0.2910975
38	0x3e83998d	0.25703087
39	0x3ebd2372	0.36941105
40	0xbe02270b	-0.12710206
41	0x3ccf1e6c	0.025283061
42	0x3e64fe8a	0.22362724
43	0xbe796eed	-0.24358721
44	0x3e86251c	0.26200187
45	0x3dc94e05	0.09829334
46	0x3d5957af	0.053062137
47	0x3e069d10	0.13145852
48	0x3f6b936b	0.92021817
49	0x3e44add5	0.19206937
50	0xbdc27564	-0.09495047
51	0x3e80a5ce	0.251265
52	0xbd94e81e	-0.07270835
53	0x3dbd222b	0.09235033
54	0xbe946ef6	-0.28990906
55	0xbe76de34	-0.24108201
56	0xbd8c4704	-0.06849483
57	0xbef1d4b8	-0.47232604
58	0xbef6f356	-0.48232526
59	0x3e5bba75	0.21457846
60	0xbf126b94	-0.571954
61	0x3d9f7c48	0.07787377
62	0xbf115906	-0.56776464
63	0x3db3eee7	0.087858014
64	0xbd575988	-0.052575618
65	0x3e985605	0.29753128
66	0x3bbcea54	0.005765239
67	0xbe5f72df	-0.21821164
68	0x3f7672be	0.9626883
69	0xbe991414	-0.2989813
70	0xbe943480	-0.28946304
71	0x3f04abbf	0.51824564
72	0xbd81751b	-0.06321164
73	0xbe96cfd8	-0.29455447
74	0xbe9dcf19	-0.30822065
75	0x3ed4b317	0.41542885
76	0x3d31f2af	0.04344433
77	0x3b685810	0.003545288
78	0xbeaa1214	-0.33216918
79	0x3ceb08b9	0.028690683
80	0xbeff85d8	-0.49906802
81	0xbd97245e	-0.07379983
82	0xbf28fb80	-0.6600876
83	0xbe29b51a	-0.16572991
84	0x3dff3927	0.12462073
85	0xbf5037e5	-0.8133529
86	0xbdad5502	-0.084634796
87	0x3e3193ca	0.17341533
88	0x3ed412fa	0.41420728
89	0xbdd24267	-0.102665715
90	0xbc8cb93a	-0.017178167
91	0x3e12eb06	0.14347467
92	0xbe4338a5	-0.19064577
93	0x3e451596	0.19246516
94	0xbef2125c	-0.47279632
95	0x3d10d94d	0.035363484
96	0xbe9ea81a	-0.30987626
97	0xbd9f1a9a	-0.07768746
98	0xbec15266	-0.37758178
99	0xbf0de2bc	-0.55424094
100	0xbdac2844	-0.084061176
101	0x3ead0434	0.3379227
102	0xbe9de473	-0.30838355
103	0x3c94432b	0.018098434
104	0x3e87b9ee	0.2650904
105	0xbdfeff94	-0.124510914
106	0xbd98c2a9	-0.074590035
107	0xbf16cd0b	-0.5890662
108	0x3c3cb8b6	0.011518648
109	0xbe3bb6c4	-0.18331438
110	0x3d55df39	0.052214835
111	0xbf1cfe14	-0.6132519
112	0xbd99f07f	-0.07516574
113	0xbdce5ace	-0.10075913
114	0x3ef30bcd	0.4746994
115	0x3e55bdbf	0.20873164
116	0x3f054956	0.52065027
117	0xbc5b50f7	-0.013386003
118	0x3d1b6e63	0.03794707
119	0x3e97834d	0.29592362
120	0x3e0a1387	0.13484012
121	0xbee562d3	-0.4480196
122	0xbeb58f44	-0.35460865
123	0x3e9fc065	0.31201473
124	0x3d868ef5	0.06570236
125	0xbedd8d78	-0.43271995
126	0x3f44c237	0.7685885
127	0xbe3b8cdb	-0.18315451
128	0xbe1f39d9	-0.15549411
129	0xbe7dfdc9	-0.24803843
130	0x3cdbb824	0.026821204
131	0xbe233fd0	-0.15942311
132	0x3e6ce788	0.23135197
133	0xbea9d5db	-0.3317097
134	0xbd8e7f21	-0.06957842
135	0xbe85a674	-0.26103556
136	0x3ecbd770	0.39812803
137	0x3e5f0b33	0.21781616
138	0xbdfedb1c	-0.124441355
139	0x3e21ad05	0.15788658
140	0xbeb807c9	-0.3594344
141	0x3df007a0	0.11720204
142	0x3e9abfb3	0.3022438
143	0x3dbb24c9	0.091378756
144	0x3b90e3e9	0.0044217003
145	0xbeea4614	-0.4575659
146	0xbe3e82f5	-0.18604644
147	0x3e5c25f7	0.21498857
148	0x3f0bd3a5	0.5461982
149	0x3eb45f8f	0.35229155
150	0xbe847fd0	-0.25878763
151	0x3e3c72cc	0.18403167
152	0x3d09dbd8	0.033656925
153	0xbeaa2e51	-0.33238462
154	0xbeda0e38	-0.42588973
155	0xbeb5afc9	-0.35485676
156	0xbe7a4f60	-0.24444342
157	0x3d9f5dbb	0.077815495
158	0x3ea132c5	0.31484047
159	0x3e31b925	0.17355783
160	0x3f1cc8bf	0.61243814
161	0xbcfeda85	-0.031110058
162	0xbe06456f	-0.13112424
163	0xbe2c87b4	-0.16848642
164	0x3dfe566f	0.1241883
165	0x3ec27630	0.37980795
166	0xbf382253	-0.71927375
167	0x3f026d2f	0.5094785
168	0x3e73d546	0.23811826
169	0x3d6b3b8d	0.05742984
170	0xbe5b7f6c	-0.21435326
171	0xbeaf89c2	-0.34284788
172	0x3ebe0fa3	0.37121305
173	0xbeb98d4d	-0.36240616
174	0xbe01d796	-0.12679896
175	0x3f1d78b4	0.61512303
176	0xbec89455	-0.39175668
177	0x3ebb0a3f	0.36531255
178	0x3de89b8a	0.11357792
179	0x3e331492	0.17488316
180	0xb971276e	-0.0002299824
181	0xbd9705a7	-0.07374125
182	0x3ee9bc4f	0.4565148
183	0x3ec2dbf8	0.38058448
184	0xbe90c8e4	-0.28278267
185	0x3eff7d80	0.49900436
186	0xbeea2ae8	-0.4573586
187	0x3e3cec33	0.18449478
188	0x3efbb4ef	0.4916148
189	0x3f002673	0.5005867
190	0xbe69f22d	-0.22846289
191	0xbeb59ad9	-0.35469702
192	0x3e4f4034	0.20239335
193	0xbe91fd25	-0.28513446
194	0x3ed14447	0.40872404
195	0xbec4e9b8	-0.38459563
196	0xbe54aef2	-0.20769861
197	0x3eeeb9eb	0.4662622
198	0xbf4584c5	-0.77155715
199	0xbcee3094	-0.029075898
200	0xbef993f1	-0.48745683
201	0xbf09d197	-0.53835434
202	0x3e164a7f	0.14676856
203	0x3e8f7752	0.28020722
204	0x3e93408c	0.28760183
205	0xbdd1525a	-0.102207854
206	0xbdec3e64	-0.115353376
207	0xbe6c0ac7	-0.23050986
208	0x3eabe85e	0.3357572
209	0x3ef80e5a	0.4844845
210	0x3e8ce92c	0.27521646
211	0x3ce6d9fe	0.028180119
212	0x3df7b18e	0.12094413
213	0xbe481fad	-0.19543333
214	0xbd7903c6	-0.060794614
215	0x3ea2560c	0.31706274
216	0xbd203981	-0.03911734
217	0x3f17a814	0.5924084
218	0xbf1414b9	-0.5784412
219	0xbbe760d3	-0.007061103
220	0x3d9874c9	0.0744415
221	0xbda8fe00	-0.08251572
222	0x3dbcca9e	0.09218334
223	0xbe5e7a78	-0.21726406
224	0x3de4bab4	0.11168423
225	0xbdc3937e	-0.09549616
226	0xbe35f5d1	-0.17769553
227	0xbf1611e2	-0.58621037
228	0xbe83bf94	-0.257321
229	0xbdb10e60	-0.0864532
230	0xbe66e10e	-0.22546789
231	0xbe99728b	-0.29970202
232	0x3e593720	0.21212435
233	0x3d55df52	0.052214928
234	0xbc6220a1	-0.013801725
235	0xbc29edb3	-0.010371613
236	0x3db47a70	0.088124156
237	0xbe5af8d4	-0.21383983
238	0xbe820403	-0.25393686
239	0xbf08b5ea	-0.5340258
240	0xbd54dffa	-0.051971413
241	0xbf1582c6	-0.5840267
242	0x3d0c603e	0.03427147
243	0xbed288c8	-0.4111998
244	0xbeab1273	-0.33412513
245	0xbc379dfe	-0.011207102
246	0xbf1014ad	-0.5628155
247	0xbeb17d82	-0.34666067
248	0xbe82c150	-0.2553811
249	0x3d0578b1	0.032585803
250	0x3e93059d	0.2871522
251	0x3e14ef18	0.14544332
252	0x3eedc761	0.46441177
253	0xbe8a0d31	-0.2696319
254	0xbe27e528	-0.1639601
255	0x3f35dcbb	0.7103993

network_body._body_endoder.seq_layers.0.bias f4 [128]
0	0xbd8790f4	-0.066194445
1	0x3d7d4bdc	0.061839923
2	0x3ca41a5c	0.0200321
3	0xbaeda376	-0.001813038
4	0x3c2cb61a	0.010541463
5	0x3d3694b5	0.04457541
6	0xbb7cd143	-0.0038576878
7	0x3d94d87a	0.07267852
8	0x3bf7ebdf	0.00756596
9	0x3d6232b4	0.055224136
10	0xbd4eb4b3	-0.050465297
11	0x3cbff16a	0.023430545
12	0xbd439fba	-0.04775975
13	0xbb9c7dff	-0.004775762
14	0x3d00fd7c	0.03149174
15	0xbd1612c5	-0.036638994
16	0x3d0b46ee	0.03400319
17	0x3d2ea9a3	0.042642247
18	0x3d343942	0.043999918
19	0x3d668aab	0.056284588
20	0xbd0b97b5	-0.034080226
21	0xbc839c2a	-0.016065676
22	0x3c1ea3e7	0.009682632
23	0xbd449dd6	-0.048002087
24	0x3c18b383	0.009320143
25	0x3cc6f8ed	0.024288619
26	0x3cb74a3e	0.022374269
27	0xbd0b5a52	-0.034021683
28	0x3ce38716	0.027774375
29	0x3af82f58	0.0018935008
30	0xbcd52dc5	-0.026022801
31	0x3d168885	0.03675129
32	0xbd4b41cf	-0.049623307
33	0x3d8c0f76	0.068388864
34	0xbd4df1af	-0.050279316
35	0x3c825e26	0.015914034
36	0x3da75374	0.08170214
37	0x3cc9ac17	0.024618192
38	0x3c7b81a1	0.01535073
39	0xbcae87d1	-0.021304997
40	0x3993d272	0.0002819482
41	0xbad7d741	-0.0016467349
42	0xbae98d92	-0.001781868
43	0x3d285740	0.041098833
44	0x3d3ba467	0.045811083
45	0x3d93cb4c	0.0721651
46	0x3d2d11d0	0.042253315
47	0x3d07ffe1	0.03320301
48	0xbcd8a8a9	-0.02644761
49	0x3d033572	0.03203339
50	0x3dc0d2fc	0.09415242
51	0x3ce1c469	0.027559476
52	0x3d4a2be5	0.049358267
53	0x3c5b84c8	0.013398357
54	0x3d3fa691	0.04678971
55	0xbce1eb36	-0.027577978
56	0x3b657c66	0.0035016774
57	0x3d4f12f8	0.0505552
58	0x3c3a67a9	0.011377254
59	0x3d2c7b82	0.042109974
60	0x3d0c3767	0.034232523
61	0x3d315d28	0.04330173
62	0xbc8166aa	-0.015796024
63	0x3e04d495	0.12971719
64	0x3be7fc7b	0.0070796586
65	0x3dc4a51a	0.09601803
66	0x3d2e5efd	0.042571057
67	0x3c1e6551	0.00966771
68	0xbbc49dbf	-0.00600025
69	0x3c1abefc	0.009444948
70	0xbdde506c	-0.10855183
71	0x3c453503	0.012036565
72	0x3d95abca	0.07308157
73	0x3d318d53	0.043347668
74	0xba8c4bee	-0.0010703781
75	0x3dba09f9	0.090839334
76	0xbca3e4c2	-0.020006541
77	0x3de230ae	0.11044441
78	0x3c9ac340	0.01889193
79	0x3d2aebf3	0.041728925
80	0xbd1daad8	-0.038493007
81	0xbca7ed13	-0.020498788
82	0x3c32c2c7	0.010910696
83	0x3c366cbb	0.011134322
84	0x3d02167e	0.03175973
85	0x3d302534	0.04300423
86	0x3d1be6c2	0.038061865
87	0xbba6a31d	-0.0050853626
88	0x3da0e507	0.078561835
89	0x3c84fcad	0.016233766
90	0x3dc168bc	0.094438046
91	0xbd07474c	-0.03302698
92	0x3d94b1d5	0.07260481
93	0x3c1241fa	0.008926863
94	0x3b4b8929	0.0031057096
95	0x3d619bdd	0.055080283
96	0x3d107bf1	0.03527445
97	0xbd03e1d1	-0.032197777
98	0x3c62484a	0.01381118
99	0x3d286b56	0.04111799
100	0xbba008b0	-0.004883848
101	0x3d931c93	0.071831845
102	0xbae537ec	-0.001748798
103	0x3ccdf64e	0.025141861
104	0x3d15bcea	0.036557116
105	0x3d6d9e2e	0.05801218
106	0xbd02ec76	-0.031963788
107	0x3cb158e4	0.021648832
108	0x3c0ac460	0.008469671
109	0x3c5e910c	0.013584387
110	0xbcf33e47	-0.029692782
111	0x3d5d9981	0.05410147
112	0x3cd8a169	0.026444154
113	0x3ba919bb	0.005160538
114	0xbc3cc19c	-0.011520769
115	0x3cf8f9ca	0.030392546
116	0x3c253658	0.010083757
117	0x3db065ce	0.08613168
118	0x3a5b6ee0	0.00083707087
119	0x3d243d49	0.04009751
120	0x3bc84e0d	0.00611282
121	0x3d65fa44	0.056146875
122	0x3d408c03	0.047008526
123	0xbc2d7141	-0.010586084
124	0x3da4dcc6	0.08049922
125	0xbd5132a3	-0.05107368
126	0x3ba0d2de	0.00490795
127	0x3daec9a9	0.08534557

network_body._body_endoder.seq_layers.2.weight f4 [128, 128]
0	0x3d505181	0.05085898
1	0x3e20d205	0.15705116
2	0xbe84f6fb	-0.2596968
3	0xbd9cb0f9	-0.07650942
4	0x3d72735a	0.05919204
5	0x3d913890	0.070908666
6	0xbda893dc	-0.08231327
7	0x3c0610f1	0.00818275
8	0xbc4a9c25	-0.012366329
9	0x3df77109	0.120821066
10	0xbd5d0e1e	-0.05396854
11	0x3d9b2f16	0.0757734
12	0xbdb4de9b	-0.08831521
13	0x3d78c53d	0.060734976
14	0xbc12b22f	-0.008953615
15	0xbd3f4d21	-0.046704415
16	0x3da65af0	0.08122814
17	0x3e03f57d	0.12886615
18	0x3d2149b6	0.039376937
19	0xbbbee68a	-0.0058258222
20	0xbe276386	-0.16346559
21	0x3de33352	0.11093773
22	0x3dbd3026	0.09237699
23	0x3d9988e5	0.07496814
24	0xbcadb961	-0.02120656
25	0x3de0b896	0.10972707
26	0x3dff00eb	0.12451347
27	0x3df0ecda	0.11763926
28	0x3d792e95	0.06083544
29	0x3d433d9c	0.047666177
30	0x3dd514f4	0.10404387
31	0xbc9c4a41	-0.019078376
32	0x3bad0a6d	0.005280784
33	0x3dcd4d7d	0.10024545
34	0x3c32afd2	0.010906177
35	0xbd5c70cb	-0.053818505
36	0xbd8d7a31	-0.06908072
37	0x3df8f923	0.12156894
38	0x3e452928	0.19253981
39	0xbca999d5	-0.020703236
40	0xbe0eba61	-0.13938285
41	0x3da193e4	0.07889536
42	0xbddfdc5a	-0.109307006
43	0xbd8f8d07	-0.07009321
44	0xbca5e75b	-0.02025192
45	0xbbd70205	-0.00656152
46	0x3ddc81d5	0.10766951
47	0xbd88f1b0	-0.06686723
48	0x3b1c8d74	0.0023888024
49	0xbd9b5ac7	-0.07585674
50	0xbb86ee9f	-0.0041178013
51	0x3e00a024	0.12561089
52	0xbc48d021	-0.012256653
53	0xbc68ef99	-0.014217281
54	0xbcf39384	-0.029733427
55	0xbd495c5f	-0.049160358
56	0xbd0bdaf9	-0.034144375
57	0xbe58d16a	-0.21173635
58	0xbe026660	-0.12734365
59	0x3d1702c8	0.036867887
60	0x3e015406	0.12629709
61	0xbe4f43ec	-0.20240754
62	0xbd91701a	-0.0710146
63	0x3c9d4144	0.01919616
64	0xbe0857fe	-0.13314816
65	0xbd8a4ca2	-0.06752898
66	0x3e1baf03	0.1520348
67	0x3d228277	0.039675202
68	0x3ae5b12b	0.0017524114
69	0x3e1eb40b	0.15498368
70	0x3d967922	0.07347323
71	0x3d7dbb22	0.061946042
72	0xbd327a56	-0.0435737
73	0xbda3cb05	-0.07997707
74	0xbd374334	-0.044741824
75	0x3dc0caae	0.09413658
76	0x3d939935	0.07206956
77	0x3dc8567b	0.0978212
78	0x3d542942	0.05179716
79	0xbe1c9b17	-0.15293537
80	0xbd47ce46	-0.048780702
81	0xbb8cdf5b	-0.004299087
82	0x3c850229	0.016236382
83	0xbccee0ec	-0.025253735
84	0x3d8339a5	0.06407479
85	0x3d31fbc3	0.04345299
86	0x3e182268	0.14856875
87	0x3ca652a1	0.020303072
88	0xbbab2760	-0.0052231997
89	0x3e453af2	0.19260767
90	0x3cfde078	0.030990824
91	0x3c24b443	0.010052743
92	0xbe163fc2	-0.14672759
93	0xbd898399	-0.067145534
94	0xbc2588db	-0.01010343
95	0x3d0b0624	0.033941403
96	0xbdd2f9dc	-0.10301563
97	0xbe06cf60	-0.13165045
98	0xbbd9e218	-0.006649267
99	0xbdbcf7a8	-0.09226924
100	0xbc88d9ae	-0.01670536
101	0x3d53903e	0.051651232
102	0xbdaf0d57	-0.08547466
103	0xbddcf654	-0.10789171
104	0xbdf0ed01	-0.11763955
105	0xbdafb685	-0.08579735
106	0x3c7422b8	0.014900856
107	0xbcca7951	-0.024716051
108	0x3d574a47	0.05256107
109	0xbd9fdc27	-0.078056626
110	0x3d143105	0.03617956
111	0xbd745ba6	-0.059657715
112	0x3daa4288	0.08313471
113	0x3da676c8	0.081281245
114	0xbe2e8daf	-0.17046236
115	0x3d61e071	0.055145685
116	0xbcaf8513	-0.02142576
117	0xbd659ba2	-0.056056626
118	0xbc772fc0	-0.015087068
119	0x3d0bb2d7	0.0341061
120	0xbe42648a	-0.18983665
121	0xb9adbdb4	-0.0003313847
122	0xbe582a04	-0.21109778
123	0x3d8a1ec3	0.067441486
124	0x3de56daf	0.11202561
125	0xbd2fab73	-0.042888116
126	0xbd8abd04	-0.06774333
127	0x3e302a01	0.17203523
128	0x3db833f4	0.08994284
129	0x3ccdba01	0.025113108
130	0x3e1ccaae	0.15311691
131	0x3d9cc013	0.07653823
132	0x3da788de	0.08180402
133	0x3e0ad199	0.13556518
134	0xbd2a276a	-0.041541494
135	0xbb48f02a	-0.0030660727
136	0xbddbcdf9	-0.107326455
137	0x3c857230	0.0162898
138	0x3d9c4cc0	0.076318264
139	0x3e56207e	0.20910832
140	0x3d0efa41	0.03490663
141	0xbb9850b5	-0.004648293
142	0xbe66398d	-0.22482891
143	0x3daa52c5	0.08316568
144	0xbe5a049b	-0.2129082
145	0xbcee8247	-0.029114855
146	0xbdaffcb2	-0.0859312
147	0xbd289b5b	-0.041163784
148	0xbd2b39ec	-0.041803285
149	0x3d570d1a	0.05250273
150	0x3e23d022	0.15997365
151	0xbd25aca0	-0.04044783
152	0x3d4e23bb	0.050327044
153	0x3e5fe796	0.21865687
154	0x3b6a3464	0.0035736794
155	0xbdb02011	-0.08599866
156	0xbd516d71	-0.051129762
157	0xbd5ad078	-0.053421468
158	0x3ced7712	0.028987441
159	0x3d9680f6	0.07348816
160	0xbcd94d3f	-0.026526092
161	0x3dcf6e23	0.10128429
162	0x3d00692b	0.031350296
163	0x3d65a23b	0.05606292
164	0xbdf6588d	-0.120286085
165	0xbd1c99ac	-0.03823249
166	0xbc80ae53	-0.015708124
167	0x3dafd132	0.08584823
168	0x3d52238e	0.05130344
169	0xbb834fe0	-0.0040073246
170	0x3e0c9d06	0.13731775
171	0xbcbed633	-0.023295498
172	0xbdedaf7e	-0.11605738
173	0x3bf96401	0.0076107983
174	0x3e0abaaf	0.13547777
175	0x3cc5167b	0.024058571
176	0x3df63144	0.120211154
177	0x3de4b730	0.11167753
178	0xbd85309c	-0.06503412
179	0x3e0c773d	0.13717361
180	0x3db941cc	0.09045753
181	0xbd7a5a91	-0.061121527
182	0xbe662fd6	-0.22479185
183	0xbce13711	-0.027492078
184	0x3b9927b0	0.0046739206
185	0x3e33db99	0.17564239
186	0xbe0b582c	-0.13607854
187	0x3b31a7da	0.0027108104
188	0x3d0ccc3f	0.03437447
189	0xbd2eaeab	-0.042647045
190	0xbe073277	-0.13202845
191	0xbdc903e1	-0.09815193
192	0xbe1f64a2	-0.15565732
193	0xbc3b3392	-0.01142587
194	0x3d48aecd	0.048994828
195	0xbd8e7639	-0.06956143
196	0x3d5fb914	0.054619864
197	0x3d937df4	0.07201758
198	0x3d836729	0.064161606
199	0xbd78f818	-0.060783476
200	0xbc6b92af	-0.014378234
201	0x3d8e274e	0.069410905
202	0xbd39092a	-0.045174755
203	0x3cac2db7	0.021017892
204	0xbe0c7749	-0.13717379
205	0x3d704827	0.05866256
206	0xbcca91e5	-0.024727771
207	0xbd6bb4d5	-0.0575455
208	0xbe111c90	-0.14171052
209	0x3e5a6903	0.21329121
210	0xbe06fdac	-0.13182706
211	0xbe2632c4	-0.16230303
212	0x3d10d445	0.035358686
213	0xbd7e8fa9	-0.062148724
214	0x3d9c1a34	0.07622185
215	0x3dcad4aa	0.09903844
216	0xbd8888a9	-0.06666691
217	0xbe2573f0	-0.16157508
218	0xbddee1e1	-0.10882927
219	0xbd36663f	-0.044531103
220	0xba83727e	-0.0010028628
221	0xbe09170e	-0.13387701
222	0xbcbb5cdd	-0.02287143
223	0xbdc8f699	-0.0981266
224	0xbe0332d3	-0.12812357
225	0xbd28de2c	-0.041227505
226	0x3d923d87	0.07140642
227	0x3bbbfeb0	0.005737148
228	0xbc427a62	-0.011869999
229	0x3dbb83c3	0.09155991
230	0x3d880efa	0.066434816
231	0xbe0b2167	-0.1358696
232	0x3d0466f1	0.032324735
233	0xbe3c53d9	-0.1839136
234	0x3e1a9906	0.15097436
235	0x3b14903a	0.0022668974
236	0xbd6a5098	-0.057205766
237	0x3e503f66	0.20336685
238	0xbd684e66	-0.05671539
239	0xbe6cb6ae	-0.23116562
240	0xbe75cf3b	-0.24004833
241	0x3d49fd71	0.049313966
242	0x3d5102b9	0.051027987
243	0xbc2e8ffb	-0.010654445
244	0x3d863041	0.065521725
245	0xbda3c61d	-0.079967715
246	0xbd508c6b	-0.050915163
247	0xbcd10978	-0.02551721
248	0xbc0d4cb0	-0.008624241
249	0x3b86dbc8	0.0041155554
250	0x3e4a2fec	0.19744843
251	0x3d8aeebb	0.067838155
252	0x3d4a02f3	0.04931922
253	0x3deca4ed	0.115548946
254	0x3c845892	0.016155515
255	0xbe065951	-0.13120009

network_body._body_endoder.seq_layers.2.bias f4 [128]
0	0x3d429cf0	0.04751295
1	0xbba971d3	-0.0051710396
2	0xbc0aabd4	-0.008463819
3	0xbd4d3dba	-0.050107695
4	0xbd14a110	-0.036286414
5	0x3b93cf97	0.0045108306
6	0xbb07b1cf	-0.0020705347
7	0xbdda2f65	-0.10653571
8	0xbd466508	-0.048436195
9	0xbc4c64ca	-0.012475202
10	0xbbca8dc5	-0.006181451
11	0xbd376f53	-0.0447839
12	0xbd2e2054	-0.0425113
13	0x3c6a20ba	0.014290029
14	0x3be41c6b	0.0069613955
15	0x3c613f68	0.013748027
16	0x3dad2c23	0.08455684
17	0xbca0cf48	-0.01963009
18	0x3d5dff15	0.054198343
19	0xbc642238	-0.013924174
20	0x3d3251ff	0.04353523
21	0x3d934fbf	0.07192945
22	0xbc7abe51	-0.015304164
23	0x3d578fe6	0.052627467
24	0x3dde1e26	0.10845594
25	0x3d0c62f8	0.03427407
26	0xbcbdb828	-0.023159102
27	0x3bbf8221	0.00584437
28	0x3c8e8a4a	0.017399926
29	0xbc903e64	-0.017607875
30	0xbd42b12a	-0.047532238
31	0xbc86a7a4	-0.01643736
32	0xbc9c57b9	-0.019084798
33	0x3c5572ad	0.013027829
34	0x3c806604	0.015673645
35	0xbd35bc29	-0.044368897
36	0xbd79a821	-0.060951356
37	0x3d32c251	0.043642346
38	0x3dbf50b0	0.09341562
39	0x3de0fddc	0.1098592
40	0xbd003142	-0.031296976
41	0x3d8b84c6	0.06812434
42	0x3c937a4b	0.01800265
43	0xbcecfc58	-0.02892892
44	0x3cfbbdca	0.030730147
45	0x3d1bb65e	0.038015716
46	0xbd8a3a00	-0.06749344
47	0x3cfa91b8	0.030587062
48	0xb8b6e848	-8.721702e-05
49	0xbc751e35	-0.014960815
50	0xb72abc55	-1.0176639e-05
51	0xbcc7307a	-0.024315108
52	0x3d135bb9	0.035976145
53	0xbc122149	-0.008919069
54	0xbce7052a	-0.028200705
55	0xbd04c565	-0.032414813
56	0x3b973698	0.0046146624
57	0x3dbc61f7	0.09198373
58	0x3da84a8d	0.082173444
59	0x3b6350f6	0.0034685708
60	0x3d9d7f63	0.07690313
61	0x3cc0ac2d	0.0235196
62	0x3de48124	0.11157444
63	0x3dabd125	0.083895005
64	0x3c8211f4	0.015877701
65	0x3d1ba349	0.037997518
66	0x3ded8481	0.11597539
67	0xbdb80e37	-0.08987086
68	0xbdc97d58	-0.098383605
69	0xbd677565	-0.05650844
70	0x3d33f2f6	0.043932877
71	0xbd6cad86	-0.057782672
72	0x3d7646f6	0.060126267
73	0x3cb30575	0.021853188
74	0x3d0c646a	0.03427545
75	0xbd5657c9	-0.052329812
76	0x3dea947e	0.11454104
77	0x3b40395f	0.002933107
78	0x3d5fc26c	0.054628775
79	0xbcdab5a6	-0.026697945
80	0x3d2deedc	0.042464122
81	0xbdad7309	-0.08469207
82	0x3dbf1a82	0.09331228
83	0xbdab9e1f	-0.083797686
84	0xbcd5fc80	-0.026121378
85	0x3d00e877	0.031471696
86	0x3daa9519	0.08329219
87	0x3c2f56e3	0.010701868
88	0x3d46ff3d	0.048583258
89	0xbd287cac	-0.04113452
90	0xbdad4313	-0.08460059
91	0x3d09d28c	0.03364806
92	0x3cb34da8	0.021887615
93	0x3e102238	0.14075553
94	0xbd588007	-0.05285647
95	0xbdaa3e86	-0.08312707
96	0xbcf3e3d8	-0.02977173
97	0xbd830b9c	-0.06398699
98	0x3b0a969a	0.0021146894
99	0xbcd2c9e1	-0.025731029
100	0xbc81cde4	-0.015845247
101	0xbba11318	-0.004915606
102	0xbd9198cd	-0.071092226
103	0x3cf227ad	0.029559935
104	0x3cac5bb6	0.021039825
105	0x3ca19a97	0.019727034
106	0x3d8678bd	0.06565998
107	0x3d6c6385	0.057712097
108	0x3b2ca083	0.002634079
109	0x3c11bb97	0.008894823
110	0x3d98d52b	0.074625336
111	0x3d6d1050	0.057876885
112	0xbc7a3a41	-0.015272678
113	0xbc0e38d4	-0.008680541
114	0xbaaaa713	-0.0013019763
115	0xbde7fef9	-0.11327929
116	0x3c7a3f32	0.015273856
117	0x3d3a5e52	0.045500107
118	0xbc8cbca2	-0.01717979
119	0x3d1599bc	0.036523566
120	0x3d2c4ea4	0.042067185
121	0xbcc53a7a	-0.024075735
122	0xbd55c5ef	-0.052190717
123	0x3c87a6ec	0.016559087
124	0x3d99ceaf	0.07510125
125	0x3d454c62	0.048168547
126	0x3d592a2c	0.053018734
127	0xbd365199	-0.04451141

network_body._body_endoder.seq_layers.4.weight f4 [128, 128]
0	0x3df56e86	0.11983971
1	0xbc99a771	-0.0187566
2	0x3c771721	0.015081198
3	0xba9e6f6a	-0.0012087647
4	0x3db1f6de	0.08689664
5	0x3d94c65b	0.07264396
6	0x3e2cfa85	0.1689244
7	0x3d7df679	0.062002633
8	0x3cb5e5a5	0.02220423
9	0x3d3bf519	0.04588804
10	0x3db6b7d7	0.089217834
11	0x3db1fb99	0.086905666
12	0x3ea4271b	0.32061085
13	0x3d1528a8	0.036415726
14	0x3db3d8ff	0.08781623
15	0xbbeb4dcf	-0.0071809064
16	0xbe05e19d	-0.13074346
17	0x3d9ad468	0.075600445
18	0x39274bad	0.00015954553
19	0x3d483353	0.04887707
20	0xbd52580d	-0.051353503
21	0xbe74d833	-0.23910598
22	0xbdba7227	-0.09103804
23	0x3d8483e8	0.064704716
24	0xbdea1c45	-0.11431173
25	0x3daf5bb3	0.08562412
26	0x3dbde156	0.09271495
27	0x3d0907bc	0.03345464
28	0x3d49ad18	0.04923734
29	0x3d91b285	0.07114128
30	0xbdd593e3	-0.10428598
31	0xbd884dca	-0.06655462
32	0x3d9e2ac0	0.07722998
33	0x3db1e23e	0.086857304
34	0xba1fdeed	-0.0006098587
35	0x3d8cac6c	0.06868824
36	0x3e1fad1b	0.15593378
37	0xbda353bb	-0.07974955
38	0x3caaf7cc	0.020870112
39	0x3c1f29f6	0.009714594
40	0x3d3cbc2e	0.0460779
41	0xbe0d25bb	-0.13783924
42	0x3dbcab89	0.09212405
43	0xbcc949bf	-0.024571298
44	0xb9db94f2	-0.00041881908
45	0x3e1762af	0.14783739
46	0xbd86d4f3	-0.065835856
47	0xbd951080	-0.07278538
48	0x3d589cbc	0.05288385
49	0x3dab0e6e	0.083523616
50	0x3d7a0535	0.061040122
51	0xbce40d91	-0.0278385
52	0xbd85d9c4	-0.06535676
53	0x3e005108	0.12530911
54	0x3e1a932a	0.15095201
55	0x3d507510	0.05089289
56	0xbe1fdb65	-0.15611036
57	0x3c4a8e1b	0.012362982
58	0x3c2121b1	0.009834693
59	0xbd9f36dd	-0.07774136
60	0x3df48b67	0.119406514
61	0x3e23eec4	0.1600905
62	0x3c8f1963	0.01746816
63	0xbdb04023	-0.08605983
64	0x3c1b9e8c	0.00949825
65	0xbcf9f406	-0.030511867
66	0xbde75ba7	-0.11296778
67	0x3b49d4d5	0.0030797024
68	0x3da7e5cf	0.081981294
69	0x3de7107b	0.1128244
70	0xbdba2e23	-0.09090831
71	0x3e0072ae	0.12543747
72	0xbe1247b7	-0.1428517
73	0xbddcf2e5	-0.10788516
74	0xbb9daaff	-0.004811644
75	0xbe1a081f	-0.1504216
76	0x3d045a0f	0.03231245
77	0xbda72c42	-0.081627384
78	0x3c6b624a	0.014366696
79	0xbce5325b	-0.027978113
80	0xbc1880d0	-0.009308055
81	0x3db5cba6	0.088767335
82	0x3d0098bc	0.03139566
83	0xbc8ebcb3	-0.017423963
84	0xbd3c19b6	-0.045922957
85	0xbdaa3d68	-0.083124936
86	0xbc9aa167	-0.01887579
87	0xbd03cef5	-0.03217979
88	0x3e332a85	0.17496689
89	0x3e22eac3	0.15909867
90	0xbd970198	-0.07373351
91	0x3e0cc119	0.13745536
92	0x3e7fb5be	0.24971673
93	0x3bf7b6be	0.0075596264
94	0x3d5e5811	0.054283205
95	0x3c68106c	0.0141640715
96	0xbe34d783	-0.17660336
97	0x3c072f42	0.008251013
98	0x3ddd86f2	0.108167544
99	0xbdcff4d3	-0.101541184
100	0xbcb51536	-0.02210484
101	0xbd2acf16	-0.0417014
102	0x3e661a8a	0.22471061
103	0x3e4781bd	0.19483085
104	0x3d4e3848	0.050346643
105	0xbdad0232	-0.08447684
106	0xbdc40561	-0.095713384
107	0x3d589780	0.052878857
108	0xbd19ec59	-0.037578914
109	0x3de9c7ab	0.11415037
110	0x3e3e6d3c	0.18596357
111	0xbd8e79ac	-0.06956801
112	0xbd82255f	-0.06354784
113	0x3e1009a6	0.1406618
114	0xbe2ab0e6	-0.16669044
115	0x3ded97d7	0.11601227
116	0x3da8bcc6	0.08239131
117	0x3cb921fb	0.022599211
118	0x3def8ce2	0.11696793
119	0x3dae4dd3	0.085109375
120	0xbdaeae59	-0.08529348
121	0x3e0bdf8f	0.136595
122	0x3e5dada7	0.21648274
123	0x3d84bd68	0.06481439
124	0x3bd87013	0.006605157
125	0x3d85eb1e	0.06538986
126	0xbe451fdf	-0.19250439
127	0x3d8e951b	0.06962033
128	0x3e03f6e6	0.12887153
129	0x3e2bfe84	0.16796309
130	0x3d1e274b	0.03861169
131	0xbdba488b	-0.09095868
132	0x3d52b037	0.051437583
133	0x3c6c11f8	0.014408581
134	0x3dc29ba4	0.09502342
135	0xbe3bad04	-0.18327719
136	0x3ca3b976	0.019985896
137	0xbe15854c	-0.1460163
138	0x3d417d2b	0.04723851
139	0xbdd2bc47	-0.10289817
140	0x3d843101	0.06454659
141	0xbe957726	-0.29192466
142	0xbce79e70	-0.028273791
143	0xbe4b8911	-0.19876505
144	0xbc1ebb43	-0.009688201
145	0xbe09fb73	-0.13474827
146	0x3d2ad927	0.041711
147	0x3e03f655	0.12886937
148	0x3e1fac7b	0.1559314
149	0xbe1a33c2	-0.15058807
150	0x3d81a583	0.06330397
151	0x3dd44690	0.10365021
152	0xbe62f814	-0.22164947
153	0x3de3a198	0.11114806
154	0xbd5c5ae5	-0.05379762
155	0xbe11c7a1	-0.14236309
156	0xbca9ed4c	-0.020743035
157	0xbdc6ee86	-0.097134635
158	0xbdbc036d	-0.09180341
159	0xbe087935	-0.13327487
160	0xbdf1ee92	-0.11813082
161	0xbcf5160f	-0.029917745
162	0x3beb41a1	0.0071794544
163	0x3e2ca8be	0.16861245
164	0x3cbaa474	0.022783495
165	0x3db8a2dd	0.09015439
166	0x3e6abbad	0.22923155
167	0x3c8f0579	0.017458664
168	0x3d92739f	0.07150959
169	0xbe310210	-0.17285943
170	0x3dfa7924	0.12230137
171	0x3d8c07a4	0.06837395
172	0xbe092777	-0.13393961
173	0x3dce6f2e	0.100797996
174	0xbd0180a4	-0.031616822
175	0xbbdcff58	-0.0067443065
176	0xbd4d09d1	-0.05005819
177	0xbce2fba4	-0.027707882
178	0xbe3ce6b2	-0.18447378
179	0xbca9ebdf	-0.020742355
180	0x3d8cc93e	0.068743214
181	0x3cf7eaaa	0.030263264
182	0x3d2f4593	0.04279096
183	0x3d087a66	0.033319853
184	0xbe526c56	-0.2054914
185	0x3e116dfa	0.14202109
186	0x3e74d00e	0.23907492
187	0x3d860f94	0.0654594
188	0xbceb0da2	-0.028693024
189	0xbd14b5ca	-0.03630618
190	0x3d1d123e	0.038347475
191	0x3ce29fed	0.02766415
192	0x3c31758d	0.010831249
193	0x3e494c2b	0.19657962
194	0x3de9caad	0.114156105
195	0xbd8e8f3d	-0.06960914
196	0xbbce678a	-0.006298964
197	0xbd7507cb	-0.059821885
198	0x3e2dc49a	0.16969529
199	0xbdaeec93	-0.08541217
200	0x3d57b389	0.052661452
201	0x3d51c74d	0.05121546
202	0xbd92eeb5	-0.07174436
203	0xbd75921f	-0.059953805
204	0xbaaa4b1d	-0.0012992356
205	0x3b14a3b6	0.0022680587
206	0x3b2992ab	0.0025874774
207	0xbdbf5345	-0.09342054
208	0xbe0d7e1d	-0.1381764
209	0xbd39a182	-0.04532004
210	0x3deb6cf7	0.11495393
211	0xbbb7daaf	-0.005610786
212	0x3c03d122	0.008045467
213	0x3e1615b8	0.14656723
214	0xbd1209b4	-0.035653785
215	0x3e107633	0.1410759
216	0xbcd11057	-0.025520487
217	0xbe08997f	-0.13339804
218	0xbe05eedd	-0.130794
219	0x3de87248	0.113499224
220	0x3d12f97d	0.03588246
221	0xbbbd9885	-0.005786004
222	0xbe44ad44	-0.1920672
223	0xbe2a744b	-0.16645925
224	0xbe0c5548	-0.13704407
225	0xbda11d2f	-0.078668945
226	0xbb30013e	-0.002685621
227	0x3e3d5298	0.18488538
228	0x3d919ff9	0.071105905
229	0x3d4a7c15	0.04943474
230	0x3d34279b	0.043983083
231	0x3cb02d9a	0.02150612
232	0x3db75efc	0.08953664
233	0xbd20f325	-0.03929438
234	0xbe332204	-0.17493445
235	0x3c344952	0.011003809
236	0xbdbf714f	-0.09347784
237	0x3db095b2	0.08622302
238	0x3dda8c3b	0.10671278
239	0x3c6d3709	0.014478453
240	0x3c57ddb5	0.013175418
241	0xbdd09d45	-0.10186247
242	0x3da4ac9a	0.08040734
243	0xbc77b1b8	-0.015118055
244	0xbde61538	-0.11234516
245	0x3d91a1d3	0.07110944
246	0xba3b1ab2	-0.0007137462
247	0x3cc7b4cf	0.024378208
248	0xbcc233b4	-0.023706295
249	0x3cdb3b0f	0.02676156
250	0xbc9b8a30	-0.018986791
251	0xbd3aa1c5	-0.04556443
252	0xbdaae4b9	-0.08344407
253	0x3e0b0f5b	0.13580076
254	0xbe6d934d	-0.23200722
255	0xbd577bb4	-0.052608207

network_body._body_endoder.seq_layers.4.bias f4 [128]
0	0xbd8227ce	-0.063552484
1	0x3daa9bc6	0.08330493
2	0x3dbea2ea	0.09308417
3	0x3d9022bc	0.07037875
4	0x3d9d1244	0.076694995
5	0x3d21663f	0.03940415
6	0xbce7761c	-0.028254561
7	0x3bef809c	0.0073090326
8	0x3db150b4	0.08657971
9	0xbd5c24f1	-0.053746168
10	0x3bced0c5	0.0063115084
11	0x3bdb8d3f	0.0067001875
12	0x3da7e483	0.08197882
13	0x3d0a71b7	0.033799853
14	0x3d1a0b29	0.0376083
15	0x3d357f97	0.044311132
16	0xbd5d4d1f	-0.054028627
17	0x3d977fe0	0.07397437
18	0x3d8242f5	0.06360427
19	0x3d71e9cf	0.059060868
20	0x3d735c38	0.05941412
21	0x3db6da26	0.08928327
22	0x3ce3659f	0.027758418
23	0xbc1627f4	-0.009164799
24	0x3d14e213	0.036348414
25	0xbbc8bff2	-0.0061263973
26	0x3bb8b3ec	0.0056366827
27	0xbd6527e3	-0.055946242
28	0x3d822b59	0.06355924
29	0x3cb1a8b5	0.021686891
30	0xbd0b49f0	-0.03400606
31	0x3d664d3d	0.056226004
32	0x3d81ab91	0.06331552
33	0xbd462d9d	-0.048383344
34	0x3d92196b	0.07133754
35	0xbc7f5005	-0.015583043
36	0xbd0742d6	-0.033022724
37	0xbd930297	-0.07178228
38	0xbce5ea70	-0.02806589
39	0xbcb29b02	-0.02180243
40	0x3cd78a92	0.026311193
41	0x3aec7ce0	0.0018042587
42	0xbc0d6a8b	-0.008631359
43	0xba71cffc	-0.00092244125
44	0xbcc9bfcf	-0.024627594
45	0x3e03b122	0.1286054
46	0x3b156f08	0.0022801775
47	0x3c9c80b4	0.01910434
48	0x3d21da81	0.039515022
49	0xbd293692	-0.041311808
50	0x3dcf43bf	0.101203434
51	0x3d0ff802	0.035148628
52	0xbc936a11	-0.017994912
53	0xbc9e3541	-0.019312503
54	0x3ab4f6d4	0.0013806471
55	0x3bcdb823	0.0062780543
56	0xbcf4cf13	-0.029883897
57	0x3d964506	0.07337384
58	0x3cb18b22	0.021672789
59	0x3dc8cfff	0.09805297
60	0x3ddcc6c2	0.107800975
61	0x3ce519f5	0.027966479
62	0x3dcfb607	0.10142141
63	0x3c37eb7f	0.01122558
64	0x3d9579f2	0.0729865
65	0x3b841930	0.004031323
66	0xbd174a6b	-0.036936205
67	0xbacdc720	-0.0015699603
68	0x3cde79c4	0.027157672
69	0x3d93d1a4	0.0721772
70	0x3cc4bf05	0.024016866
71	0x3d25a8d9	0.04044423
72	0x3daa2014	0.083069
73	0x3b3f7901	0.002921641
74	0x3c8d7b01	0.017270567
75	0xbb2d2e3c	-0.0026425263
76	0xbd58fb00	-0.052973747
77	0x3c9d76f2	0.019221757
78	0x3daff65d	0.08591912
79	0x3d7901dc	0.06079279
80	0x3c75f6c3	0.015012446
81	0xbca978b5	-0.02068744
82	0xbda92ed6	-0.08260886
83	0xbd0a3319	-0.033740137
84	0x3cbb8a2d	0.022893036
85	0x3d4bf4a9	0.049793873
86	0xbd365cec	-0.04452221
87	0xbd1901fd	-0.03735541
88	0xbca6187d	-0.020275349
89	0x3d8bf583	0.06833937
90	0x3d58395b	0.052789073
91	0x3d261fdf	0.04055774
92	0x3d9bb72f	0.07603299
93	0x3d8302d8	0.06397027
94	0xbbe40ee6	-0.006959784
95	0xbbdb15f7	-0.006685968
96	0x3dd0c9a0	0.10194707
97	0x3d9c04a1	0.076180704
98	0x3da0298b	0.07820424
99	0x3db6c1b6	0.08923666
100	0x3d3151ce	0.043290906
101	0x3da6bf34	0.08141938
102	0x3d348c39	0.04407904
103	0x3d43a36a	0.047763266
104	0x3d9ad4a8	0.07560092
105	0x3ccf0dae	0.025275078
106	0x3cbca7eb	0.023029288
107	0x3de1408f	0.10998642
108	0xbc79f21a	-0.015255475
109	0xbd1c02f0	-0.03808874
110	0x3df33f29	0.11877281
111	0xbc39e8cc	-0.011347007
112	0x3d1279a9	0.035760555
113	0x3e062a9b	0.1310219
114	0xbd787bf1	-0.060665075
115	0xbd11ae5d	-0.035566676
116	0x3cde0e46	0.027106415
117	0xbd496f36	-0.049178325
118	0xbc592aad	-0.013254804
119	0x3d27d46b	0.040974062
120	0xbd587524	-0.05284609
121	0x3c18c77d	0.009324905
122	0x3d91eb2d	0.07124934
123	0x3d0d61f5	0.034517247
124	0x3d8987f8	0.06715387
125	0x3cc0b896	0.023525517
126	0x3cf9da1d	0.030499512
127	0x3d2332bb	0.039843302

action_model._continuous_distribution.log_sigma f4 [1, 4]
0	0x3ce8fc57	0.028440638
1	0x3cc2a506	0.02376033
2	0x3d3828c4	0.044960752
3	0x3ba7ba73	0.005118662

action_model._continuous_distribution.mu.weight f4 [4, 128]
0	0xbd319efa	-0.043364502
1	0xbd9b6c0a	-0.07588966
2	0xbd2a7593	-0.041616034
3	0xbb798ec0	-0.003807947
4	0xbc6ed48f	-0.014577045
5	0xbc450c8c	-0.012026917
6	0x3d17d586	0.037068866
7	0xbdd5705b	-0.10421821
8	0xbc6789f7	-0.0141320145
9	0xbd6ca8ce	-0.057778172
10	0xbd7328bc	-0.05936502
11	0x3dac35b3	0.0840868
12	0xbc813072	-0.01577017
13	0x3c5eaa3d	0.013590393
14	0x3d1178b9	0.03551552
15	0x3dfaa2d4	0.12238088
16	0x3cedc09b	0.029022506
17	0xbdf2089f	-0.118180506
18	0xbc98135e	-0.018563922
19	0x3cc7a821	0.024372162
20	0x3caae840	0.020862699
21	0xbd5b45f0	-0.053533494
22	0xbc941d71	-0.018080445
23	0xbdb2fb25	-0.08739308
24	0x3d7d0fd7	0.061782684
25	0x3c0a7aae	0.008452101
26	0x3dd19cf0	0.102350116
27	0x3d88ac5b	0.06673499
28	0x3dcc362f	0.09971272
29	0x3da8d14b	0.082430445
30	0xbd53b212	-0.051683493
31	0x3d6ebb4e	0.058284096
32	0x3e0fc6ec	0.14040726
33	0x3cd0feb8	0.025512084
34	0xbd8a937a	-0.0676641
35	0x3da8249a	0.08210106
36	0x3ceab5e7	0.02865119
37	0xbbd4e75f	-0.006497308
38	0x3d086e15	0.033308107
39	0xbd6511f2	-0.055925317
40	0x3d52c2d8	0.05145535
41	0x3ce11d59	0.027479814
42	0xbd8e89fd	-0.06959913
43	0x3aad7d3e	0.0013236178
44	0x3b2bc81d	0.0026211806
45	0xbad3e2a8	-0.0016165571
46	0xbdb1ef2c	-0.086881965
47	0xbe0af7ed	-0.13571139
48	0x3d692e8b	0.056929152
49	0x3d844ca3	0.0645993
50	0xbc7f7f3d	-0.015594301
51	0xbd7a8918	-0.0611659
52	0xbdb3d53f	-0.08780908
53	0x3dc6732f	0.09689938
54	0xbdf0dfc8	-0.11761433
55	0x3d5b9855	0.053612072
56	0xbd633624	-0.055471554
57	0x3d970c62	0.07375409
58	0x3cc5f217	0.024163289
59	0x3d18eb5e	0.03733384
60	0xbd39a8ff	-0.045327183
61	0x3db3dd49	0.08782441
62	0x3d2947ed	0.04132836
63	0x3d15cc2d	0.03657167
64	0xbc2f967a	-0.010717029
65	0xbe08296b	-0.1329705
66	0xbd034856	-0.032051407
67	0x3d322f8f	0.043502387
68	0xbdd57d9e	-0.1042435
69	0xbcd5e6ab	-0.026110968
70	0xbde639bd	-0.112414815
71	0x3d542966	0.051797293
72	0x3c343cb1	0.011000798
73	0xbd1ea136	-0.03872796
74	0xbd1235eb	-0.03569595
75	0xbe27c4d8	-0.16383684
76	0x3abe7509	0.0014530729
77	0xbe07153a	-0.13191691
78	0x3da9ae14	0.08285156
79	0x3c6c13ae	0.014408989
80	0x3dd5b7b0	0.10435426
81	0xbc5c8383	-0.013459089
82	0x3caf59ff	0.021405218
83	0xbd2c54d2	-0.04207308
84	0x3d2bc5eb	0.041936796
85	0x3d852288	0.06500727
86	0xbd7ec43e	-0.06219887
87	0x3d851751	0.06498588
88	0xbdcce53b	-0.1000466
89	0x3de60ded	0.11233125
90	0xbdf020c2	-0.11724998
91	0x3cb4d02c	0.02207192
92	0x3c9c4496	0.019075673
93	0x3d9e6e7e	0.077359185
94	0xbdd74cb0	-0.10512674
95	0xbdbbebf2	-0.09175862
96	0x3d217a1b	0.03942309
97	0x3d994026	0.074829385
98	0xbd9e7b7d	-0.07738397
99	0xbd69ce53	-0.05708153
100	0x3c90eb28	0.017690256
101	0x3d2dedb7	0.04246303
102	0x3dd2153b	0.10257956
103	0xbd798127	-0.060914185
104	0xbd9aab6a	-0.07552226
105	0xbdd6aae2	-0.10481812
106	0x3d85c634	0.06531945
107	0xbcbaaeaf	-0.022788374
108	0xbe0f1d3c	-0.13975996
109	0xba9bcad6	-0.0011886011
110	0xbbecdaae	-0.007228217
111	0xbda24bfb	-0.079246484
112	0xbb6b45f3	-0.0035899847
113	0x3c05523d	0.008137283
114	0xbcea0241	-0.028565528
115	0x3c121402	0.008915903
116	0x3da0393b	0.07823416
117	0x3c9387e3	0.018009132
118	0xbcb189d9	-0.021672176
119	0x3dc44288	0.09583002
120	0xbca8bee4	-0.020598836
121	0x3e16e04b	0.14733998
122	0x3da16f9c	0.07882616
123	0x3ddc884c	0.10768184
124	0x3de7e9a7	0.113238625
125	0x3dba759c	0.091044635
126	0x3dd5a707	0.104322486
127	0x3dd4876c	0.10377392
128	0x3d951ab7	0.07280486
129	0xbde33c72	-0.110955134
130	0xbd8d0d87	-0.06887346
131	0xbd6facf4	-0.05851455
132	0xbd193b51	-0.037410084
133	0xbbdfa77c	-0.0068253856
134	0x3aea9bf3	0.001789926
135	0x3cca5c1b	0.024702122
136	0xbd15eb5c	-0.03660141
137	0x3d82612e	0.06366192
138	0xbcac1340	-0.021005273
139	0xbcd2de3e	-0.025740739
140	0xbcefa3bb	-0.029252877
141	0x3bfa3d17	0.007636677
142	0xbd361257	-0.044451084
143	0xbc6d1ce7	-0.014472223
144	0x3d2260c5	0.039643068
145	0xbc933cf9	-0.01797341
146	0xbc9db807	-0.01925279
147	0xbc6e583f	-0.014547407
148	0xbddb8744	-0.10719159
149	0xbd2f70b2	-0.042832084
150	0xbd5b2784	-0.053504482
151	0x3ccd1534	0.025034525
152	0xbd0b82b2	-0.034060188
153	0x3d01b086	0.031662486
154	0x3a6f6432	0.0009132057
155	0x3d857737	0.06516879
156	0xbc60c2f5	-0.013718356
157	0xbd5c22bb	-0.05374406
158	0x3d69d53f	0.057088133
159	0xbd025db1	-0.031827632
160	0xbbb26b16	-0.0054448945
161	0x3cf21c2a	0.029554445
162	0xbd8a7389	-0.06760318
163	0x3c02d2f9	0.00798487
164	0x3d19aa51	0.037515942
165	0x3dacdad5	0.084401764
166	0x3cfdc6b1	0.030978533
167	0x3d3b56ed	0.045737196
168	0x3d0697b1	0.032859508
169	0xbd209b17	-0.039210405
170	0x3bf454a4	0.007456379
171	0x3cf202f4	0.029542424
172	0x3bf46492	0.007458278
173	0xbdaa043f	-0.08301591
174	0x3d772eb7	0.060347285
175	0xbccd431f	-0.02505642
176	0xbc29b37e	-0.010357736
177	0x3de697f0	0.112594485
178	0xbd4fd0e2	-0.050736316
179	0x3d90fcd5	0.07079474
180	0xbc1683bf	-0.009186684
181	0x3d743f72	0.05963082
182	0x3c701bac	0.014655035
183	0x3cfd2627	0.030901982
184	0x3cad7082	0.021171812
185	0xbc47c766	-0.012193536
186	0x3c26a4a3	0.010171088
187	0xbdfe1d51	-0.124079354
188	0xbd6bfbc0	-0.057613134
189	0x3cc3c340	0.023896813
190	0xbd4682cf	-0.048464593
191	0x3cfacfb3	0.030616617
192	0xbc2fb273	-0.010723698
193	0x3d446738	0.04795
194	0x3c3d804f	0.011566236
195	0x3cc264b4	0.02372966
196	0xbbeaa625	-0.0071609193
197	0xbbcec833	-0.0063104867
198	0xbb912a43	-0.004430087
199	0x3a7338c4	0.0009278173
200	0xbd190fd9	-0.03736863
201	0xbd1529c7	-0.036416795
202	0xbd53773e	-0.05162739
203	0x3d21544c	0.039387032
204	0x3db290e0	0.08719039
205	0x3ba87cc2	0.0051418254
206	0xbc8a0c03	-0.01685143
207	0xbd3cfa99	-0.046137426
208	0xbcec3f28	-0.028838709
209	0xbbe8c1e3	-0.007103191
210	0x3d168422	0.036747105
211	0x3d3386c7	0.043829706
212	0xbc3e89a1	-0.011629493
213	0xbd183ef7	-0.037169423
214	0x3d377171	0.04478592
215	0x3d5d22a4	0.053988114
216	0x3d09b6e5	0.033621687
217	0xbc97b943	-0.018520957
218	0xbd8c2d9b	-0.06844636
219	0x3d188329	0.03723446
220	0xbd48de9b	-0.049040418
221	0xbce25dfb	-0.027632704
222	0x3b55f5f5	0.0032647823
223	0x3c53455d	0.012894955
224	0xbdd551a5	-0.10415963
225	0xbb8c4bd9	-0.0042815027
226	0xbd70c644	-0.05878283
227	0xbd90c48e	-0.0706874
228	0x3d09fd1e	0.033688657
229	0xbdd98355	-0.10620753
230	0xbd2a8ee1	-0.041640166
231	0xbd95b561	-0.07309986
232	0xbdb269b3	-0.08711567
233	0x3a8fd30a	0.0010972929
234	0x3d263cc2	0.040585287
235	0xbe1874c7	-0.14888297
236	0x3d48d0f0	0.049027383
237	0x3da4e9e7	0.08052426
238	0xbe0d22e8	-0.13782847
239	0x3a659469	0.00087577716
240	0xbd726e4e	-0.059187226
241	0xbd1aa674	-0.0377564
242	0x3d5051ca	0.05085925
243	0x3c7925f6	0.0152068045
244	0x3d16bba5	0.036800046
245	0x3d9cdd82	0.07659437
246	0x3d5ee015	0.05441292
247	0x3b11dfba	0.0022258596
248	0x3d561544	0.052266374
249	0x3d21e110	0.039521277
250	0xbba493c0	-0.005022496
251	0xbcb4dee8	-0.022078946
252	0x3b88ca33	0.0041744947
253	0x3cb6b71d	0.022304112
254	0xbcb2c737	-0.021823509
255	0x3bae631c	0.0053218734

action_model._continuous_distribution.mu.bias f4 [4]
0	0x3c71238a	0.014717946
1	0xbd80e8e7	-0.062944226
2	0x3d62d34b	0.055377286
3	0x3c97b6f3	0.018519854

onnx::Div_56 f4 [10]
0	0x430da5f7	141.6483
1	0x4221d72d	40.460133
2	0x427b7d99	62.872654
3	0x428c2441	70.07081
4	0x3f647ae7	0.89250034
5	0x3f1ca9dc	0.61196685
6	0x3f6af0f2	0.91773903
7	0x3f3ba22b	0.73294324
8	0x3f1cd99b	0.6126954
9	0x3f3e49d9	0.7433143
